assets/pca_classifier.pth (torch, 3357 bytes, 2 tensors)

fc.weight f4 [7, 50]
0.1336057 0.1947496 -0.42462608 -0.10114881 0.05541997 -0.11646475 0.27971038 0.33662105
0.21017866 -0.024474204 -0.45560998 -0.19558102 0.009666621 -0.46058726 0.47074 0.47514996
0.5838643 -0.39273423 0.4203087 0.381378 -0.04157366 -0.701554 0.4070593 -0.61652464
-0.40082428 -0.4910991 0.16630153 0.30628136 0.38020465 -0.6832524 -0.782687 0.12939619
0.44934598 -0.017079141 -0.40875566 -0.1120902 0.48635152 -0.3831134 0.2583126 -0.37371817
-0.48695126 -0.65644604 0.4597384 -0.57980716 -0.15588328 0.3611451 -0.757105 -0.78803176
0.26468724 -0.75381345 0.097565785 0.12548555 -0.3703224 -0.10952668 0.017652748 -0.1404218
-0.016405942 0.08863 0.2428035 -0.13093661 -0.08920199 -0.43401667 0.1979386 -0.01307637
0.17288421 0.35211247 -0.15298682 -0.7219813 0.6977861 -0.21247037 0.5899328 -0.52544713
0.0030631276 -0.75538343 -0.4731514 0.4590784 0.10338254 0.30692694 -0.44406056 -0.102557234
0.023733446 0.7138544 -0.5908341 0.46345478 0.5980509 0.13304485 0.37067005 0.6788853
0.07107153 0.29512694 -0.0058752904 0.4904708 -0.38239828 -0.18713659 -0.33190194 -0.657284
-0.6108841 -0.49435958 -0.492995 0.22319892 0.17357418 -0.029017597 -0.26510605 0.11230661
-0.019309038 -0.050061677 0.45053118 0.12431385 -0.54003054 -0.081476785 0.46440318 -0.5580256
-0.5212148 -0.046280056 -0.52298385 0.52140236 -0.64151806 -0.734609 -0.28457576 0.013337359
0.93474585 0.50856626 0.5495498 -0.688747 0.36064503 -0.5909412 0.60732305 -0.21560131
-0.6953899 0.6425408 0.71523625 0.7008212 0.69043773 -0.8493381 0.8339734 0.9643835
-0.65216357 -0.528117 0.888537 -0.2356992 -0.8365746 0.6489497 -0.33692554 -0.8285193
0.76806146 0.6113837 -0.14060348 0.8198956 -0.8604133 -0.55156106 0.05755213 0.12153098
-0.20128906 -0.01914674 -0.08637567 -0.20149277 -0.0143017685 0.29697046 0.2165745 -0.063883275
0.15485354 -0.4291105 0.23879777 -0.47735462 -0.14107709 0.016099393 -0.15377022 0.28548285
0.27405652 -0.007924662 -0.21208054 -0.26965547 0.056632027 -0.48287532 -0.31931406 0.38088846
0.53898114 0.24406213 0.4806617 -0.19697791 -0.5153666 0.02838587 -0.12090308 0.4066079
0.23833168 0.6575279 -0.15823576 0.11143183 -0.3584708 0.27402204 -0.41675118 0.40142545
-0.099192984 -0.36042556 0.559495 -0.006682306 -0.34892392 -0.43217093 0.4771064 -0.43013757
0.30306187 -0.119110905 -0.12174134 0.11755195 0.07077588 -0.40232977 -0.10737607 0.18227993
0.44111696 0.10513894 0.34254602 0.23324043 -0.6125764 0.4172772 -0.09098523 0.38381955
0.43764666 0.37470645 0.4930657 0.56710595 -0.4942301 0.019465927 -0.0895005 -0.5204369
0.37697795 0.2917085 0.54977584 -0.16859101 -0.7503313 -0.6572907 -0.40860942 -0.090644486
0.18432021 -0.048737288 -0.21455632 0.67534107 0.41824982 -0.6117046 -0.67978334 -0.44715205
-0.13565832 0.61675847 0.8558456 0.73789436 0.7470976 -0.8551387 -0.47712263 -0.4608686
0.60996586 -0.66378367 -0.27847028 -0.0638149 0.37529007 0.08543932 0.096088484 0.3398699
00000000: efcf 083e 706c 473e 9768 d9be 1b27 cfbd
00000010: 0d00 633d 1285 eebd 3336 8f3e 9859 ac3e
00000020: 1339 573e 207e c8bc b645 e9be 6446 48be
00000030: bf60 1e3c 18d2 ebbe d504 f13e db46 f33e
00000040: 2178 153f 7614 c9be b432 d73e fa43 c33e
00000050: 2449 2abd 0b99 33bf 146a d03e 8fd4 1dbf
00000060: d738 cdbe 5771 fbbe f34a 2a3e e9d0 9c3e
00000070: 2faa c23e a1e9 2ebf 2d5e 48bf 6f80 043e
00000080: ad10 e63e 8ee9 8bbc 6c48 d1be 8c8f e5bd
00000090: 1103 f93e 7127 c4be 8d41 843e fd57 bfbe
000000a0: ad51 f9be d90c 28bf d562 eb3e 3e6e 14bf
000000b0: de9f 1fbe 03e8 b83e a2d1 41bf 73bc 49bf
000000c0: 1685 873e ebf9 40bf 92d0 c73d 497f 003e
000000d0: e69a bdbe 864f e0bd 7f9c 903c bbca 0fbe
000000e0: c165 86bc a583 b53d 7ba1 783e 3f14 06be
000000f0: 88af b6bd 6f37 debe 6bb0 4a3e 453e 56bc
00000100: 8f08 313e 1648 b43e 94a8 1cbe c4d3 38bf
00000110: 1ca2 323f d591 59be d605 173f b483 06bf
00000120: c1be 483b cf60 41bf e640 f2be 530c eb3e
00000130: 3aba d33d 8725 9d3e e85b e3be 8709 d2bd
00000140: a56c c23c 29bf 363f e740 17bf f249 ed3e
00000150: dd19 193f e93c 083e 77c8 bd3e 6dcb 2d3f
00000160: f38d 913d e11a 973e 8285 c0bb fd1e fb3e
00000170: b5c9 c3be bca0 3fbe 0def a9be c443 28bf
00000180: e662 1cbf b31c fdbe d769 fcbe 428e 643e
00000190: 6ebd 313e 50b6 edbc fbbb 87be 0201 e63d
000001a0: fd2d 9ebc 790d 4dbd 06ac e63e 4398 fe3d
000001b0: 713f 0abf 4ddd a6bd 41c6 ed3e c4da 0ebf
000001c0: 556e 05bf 2890 3dbd 45e2 05bf a07a 053f
000001d0: 873a 24bf 560f 3cbf eab3 91be f084 5a3c
000001e0: 814b 6f3f 6631 023f 4caf 0c3f b951 30bf
000001f0: 77a6 b83e ec47 17bf 8679 1b3f 97c6 5cbe
00000200: 1305 32bf 8e7d 243f b919 373f 0569 333f
00000210: 87c0 303f 396e 59bf 487f 553f d6e1 763f
00000220: 31f4 26bf ad32 07bf 2977 633f 225b 71be
00000230: c129 56bf 9121 263f 8181 acbe d719 54bf
00000240: ad9f 443f a483 1c3f 5cfa 0fbe aee4 513f
00000250: 0c44 5cbf 1b33 0dbf c8bb 6b3d 3ce5 f83d
00000260: b81e 4ebe a0d9 9cbc bae5 b0bd 1f54 4ebe
00000270: f751 6abc 830c 983e b5c5 5d3e 3cd5 82bd
00000280: ed91 1e3e 5fb4 dbbe 6787 743e d367 f4be
00000290: 8376 10be e0e2 833c f175 1dbe cf2a 923e
000002a0: 2351 8c3e 71d6 01bc a42b 59be 4810 8abe
000002b0: fcf6 673d 6f3b f7be 227d a3be d003 c33e
000002c0: abfa 093f 6ceb 793e 4a19 f63e 94b4 49be
000002d0: 11ef 03bf 7c89 e83c 099c f7bd e92e d03e
000002e0: 380d 743e c053 283f 8e08 22be 5f36 e43d
000002f0: 7c89 b7be 9e4c 8c3e 6960 d5be a387 cd3e
00000300: b125 cbbd b389 b8be 103b 0f3f 3ff7 dabb
00000310: 28a6 b2be 8245 ddbe 4a47 f43e fe3a dcbe
00000320: ed2a 9b3e 6bf0 f3bd 8653 f9bd 14bf f03d
00000330: f2f2 903d 2bfe cdbe fce7 dbbd 97a7 3a3e
00000340: 15da e13e 1653 d73d 3162 af3e 94d6 6e3e
00000350: cfd1 1cbf 5ba5 d53e 7756 babd ff83 c43e
00000360: 3913 e03e 86d9 bf3e 1c73 fc3e db2d 113f
00000370: ba0b fdbe 0277 9f3c 0a4c b7bd 5a3b 05bf
00000380: 4103 c13e d15a 953e 1cbe 0c3f 1fa3 2cbe
00000390: b615 40bf 3444 28bf 4135 d1be d1a3 b9bd
000003a0: 70be 3c3e c0a0 47bd a7b4 5bbe 27e3 2c3f
000003b0: d724 d63e ac98 1cbf 4806 2ebf 1df1 e4be
000003c0: 04ea 0abe e2e3 1d3f b218 5b3f a5e6 3c3f
000003d0: ca41 3f3f 5fea 5abf 6b49 f4be f8f6 ebbe
000003e0: b926 1c3f baed 29bf a893 8ebe 63b1 82bd
000003f0: 0526 c03e cffa ae3d 0aca c43d 6d03 ae3e

fc.bias f4 [7]
-0.85749716 -0.605911 -0.7747095 -0.69112855 -0.8875446 0.65606356 -0.7472855
00000000: ef84 5bbf fc1c 1bbf 5d53 46bf cded 30bf
00000010: 1f36 63bf c8f3 273f 1a4e 3fbf
