assets/pca_classifier.pth (torch, 3357 bytes, 2 tensors)

fc.weight f4 [7, 50]
000000 8c 5b 01 be 2c 29 5a 3b 08 ea f9 bd 88 ed 0a 3e
       -0.12632579 0.00332887 -0.12202841 0.13567173
000010 31 19 1c 3d 21 fe 32 be b0 6f cf bd 03 01 46 3e
       0.038109962 -0.17479755 -0.101287246 0.19336323
000020 df d9 ce be cc 32 26 be 4e 7b 83 be ab 25 ac 3c
       -0.40400597 -0.16230315 -0.25680012 0.021014055
000030 bb af f7 3d 41 53 15 3f 24 67 c2 3d 7f d9 16 3f
       0.12094065 0.5833016 0.09492329 0.5892562
000040 36 f5 72 3d a3 08 70 be cd 13 86 bb 75 df 4b be
       0.059315883 -0.23440795 -0.004091716 -0.19909461
000050 c2 4b 12 3f bf 09 1f 3e aa a1 a7 3e b1 15 96 be
       0.5714685 0.15531062 0.32740527 -0.29313424
000060 c6 22 46 be 1d 83 36 3e 51 09 fb be 7b 01 da be
       -0.19349203 0.17823453 -0.49030545 -0.42579255
000070 9f 63 ff be bd db 23 3f f2 3e 42 be 24 6d 82 3e
       -0.49880692 0.6400717 -0.18969324 0.25473893
000080 dd c0 d8 be 2c d1 30 3f 27 09 27 3f 97 08 d7 be
       -0.42334643 0.6906917 0.6524834 -0.4199874
000090 e8 b2 bd 3e 11 60 02 be 50 6f b6 3e 5a 03 40 3f
       0.37050557 -0.12731959 0.356318 0.75005114
0000a0 9e 0f 8d bd 24 c4 a1 3e a7 9c 38 bf 8b b4 a8 3d
       -0.06887744 0.31594956 -0.7211403 0.08237561
0000b0 32 6b 18 bf 9b 58 0b bf ee 91 26 be 31 b5 fc be
       -0.5953857 -0.54432076 -0.16266605 -0.49356988
0000c0 d0 17 7e 3e 9b 64 56 bf e5 9e e8 bd 68 13 ca bd
       0.24813771 -0.8374726 -0.11358432 -0.09866983
0000d0 85 f7 02 3d 5c 3a 2d 3e 34 6e f1 3c 1f cb 36 3e
       0.031974334 0.16916794 0.029471494 0.17850922
0000e0 66 ea 96 3c 38 1d ec 3d 75 f2 75 be 60 e6 1d 3e
       0.018422317 0.115290105 -0.24018271 0.15419912
0000f0 d4 05 81 3e 8b a4 2a be e2 b7 62 3d f9 e5 08 3f
       0.2519976 -0.1666433 0.055351146 0.5347591
000100 64 66 5c be 21 1c cc 3e b7 b6 62 bd f2 60 b6 be
       -0.21523434 0.3986521 -0.05535003 -0.35620838
000110 69 44 7d 3e 0b 59 1c 3d 8a 4a 78 3e 1d 06 f9 bd
       0.24733128 0.038170855 0.24247184 -0.12159369
000120 0e 0a 2d be 9e dc eb be 9d 30 91 3e 3a 71 d2 3e
       -0.16898367 -0.46066755 0.28357401 0.4110201
000130 98 b7 a8 3e 54 8d 31 3e a4 44 87 3d 8b 16 ee 3c
       0.3295257 0.17339069 0.06604889 0.029063484
000140 ba 74 59 3f 92 3c fc bc a3 4f 35 bf 01 1c 36 bf
       0.84943736 -0.0307906 -0.7082464 -0.7113648
000150 d1 c5 00 3f 99 4c 3f bf 41 27 4e 3e 79 a5 ab be
       0.50301844 -0.74726254 0.20132162 -0.33524683
000160 a1 58 28 3f 8d 90 6a be e5 91 35 3f 07 ad 58 3c
       0.65760237 -0.22906704 0.7092574 0.013224847
000170 3a 59 87 3e ed 24 1b 3f eb 99 2c be 70 68 30 bf
       0.26435262 0.6060322 -0.1685559 -0.6890936
000180 1b fd 70 be 08 68 74 bd ff 76 ba be d4 f6 fe 3e
       -0.23534052 -0.059669524 -0.36418912 0.4979769
000190 e6 be 88 be 16 cb e4 3d 5e 97 01 3e 4b 5e 79 3e
       -0.26708144 0.11171548 0.12655398 0.24352376
0001a0 47 5e 1e be b3 b9 88 bd 92 43 d0 3d e1 af 92 be
       -0.15465651 -0.06676044 0.10169138 -0.2864981
0001b0 70 8e 4b be 87 33 08 3f 1b ae 62 be 54 9c 21 3c
       -0.19878554 0.53203624 -0.22136728 0.009863932
0001c0 6c c2 32 be 39 05 a9 3e 1c fd 17 bf aa 99 06 3f
       -0.17456979 0.33011797 -0.5937059 0.5257822
0001d0 0c 52 b4 3e bf de 27 bf 2d 48 05 bf 3c 1b b2 3e
       0.35218847 -0.6557426 -0.52063257 0.34786403
0001e0 06 c6 d6 3e ed f3 10 bf a2 47 91 3e 53 8b fd bd
       0.41947955 -0.566222 0.28374964 -0.123800896
0001f0 34 2b ff be 00 21 fc be 40 b9 16 3f 76 bd 59 be
       -0.4983765 -0.49243927 0.5887642 -0.2126368
000200 03 1a 47 bf ab 45 ab 3a 24 1c e2 3d 7f 29 1f bf
       -0.77774066 0.0013067027 0.11040524 -0.62172693
000210 f8 3f 23 3f 2e 2e 48 3f 2a 80 7f 3f 33 70 a5 3e
       0.63769484 0.78195465 0.9980494 0.32312164
000220 82 d5 f8 be 32 ec 19 bf 39 38 da be 24 aa b7 be
       -0.48600394 -0.6012603 -0.4262102 -0.35871994
000230 08 29 df 3e 72 11 d0 be 52 33 22 3f 20 92 68 3f
       0.43585992 -0.4063831 0.6335956 0.9084797
000240 a4 6b db 3e a4 a2 76 3f f6 50 39 3f 3b 80 19 3f
       0.4285556 0.9634192 0.7238916 0.5996129
000250 bb 8f 83 be 8d 2c 64 bf 90 01 1c bd 5c bb 85 bb
       -0.25695595 -0.8913048 -0.038087428 -0.004081173
000260 14 c1 6d 3c 48 d9 b4 3d 9c 5a 5b 3b ab 95 20 bd
       0.014511365 0.088305056 0.0033470755 -0.039205234
000270 a4 c3 88 3d a9 27 83 3c 8b 13 49 be 9f 9d 37 3e
       0.066779405 0.016010122 -0.19636361 0.17931221
000280 86 df 3d 3e df dc 2a 3e a8 f9 a8 be da 96 13 3f
       0.18542299 0.16685818 -0.33002973 0.57652056
000290 1f b7 d9 bc 76 94 f8 3e 14 6c 7c 3e 79 cb 8d be
       -0.026576577 0.48550767 0.24650604 -0.276943
0002a0 ff bb 68 3d 87 2e 51 bd f2 ae 8e 3e fa 8d 3b 3e
       0.056819912 -0.051069763 0.27867848 0.18315879
0002b0 ae bb 8d 3e ae c6 4a bc b9 4d 9c bc 9b fb d0 3d
       0.2768225 -0.0123764705 -0.01908003 0.1020424
0002c0 09 c2 6f bd 0f 0a fe 3d 84 1f d1 be d6 d7 9a 3e
       -0.058534656 0.12404262 -0.40844357 0.30242795
0002d0 9e 27 1b 3f 3f 54 6f 3d 8c 3e 92 be 51 be 0d bf
       0.60607326 0.058429953 -0.28563344 -0.55368525
0002e0 0f 4d 83 be 28 ca d8 3e d6 4a 70 3d f2 75 ee be
       -0.2564473 0.42341733 0.05866512 -0.4657436
0002f0 df 48 3e bf 0b 2a 16 3f c6 0d b2 be c2 1b c8 3d
       -0.7432994 0.586579 -0.34776133 0.097709194
000300 df 4e 5e 3e 3f e2 19 be 17 a5 79 bd cb 4b c1 bd
       0.21709774 -0.15027712 -0.060948458 -0.094382845
000310 a5 0d 02 3f 4c c9 58 3f db b4 39 bd a7 65 23 3f
       0.5080207 0.84682155 -0.045338493 0.63826984
000320 52 0c 26 be db 74 70 3e 62 b6 83 be 50 38 42 be
       -0.16215637 0.23482077 -0.25725085 -0.18966794
000330 7f dc c5 3c 4e 66 ac be f9 a8 1d 3d e8 4d b7 3d
       0.024152992 -0.33671802 0.038491223 0.08950406
000340 2c af 44 3c b8 06 ee 3d d4 f0 05 be 40 7e 6e 3e
       0.012004655 0.11622375 -0.1308015 0.23290348
000350 6c d3 95 be e7 8c 1e 3f 15 58 d1 be c2 89 27 3f
       -0.29262865 0.6193375 -0.40887514 0.65444577
000360 ee 3e 95 3e 7c 1b 18 bf 5b f8 a4 3e 6b b1 e9 3e
       0.29149574 -0.5941694 0.3222073 0.45643172
000370 75 05 db be 47 ad b9 be f1 fe f8 be 89 1b 0b 3f
       -0.427776 -0.36265013 -0.48632005 0.5433889
000380 a7 7d 3b bf 41 e6 c4 be 62 b2 57 bf 7b c5 fc 3e
       -0.73238605 -0.3845692 -0.84256566 0.49369416
000390 24 26 2e bf 1e 38 04 3f b8 08 47 bf 59 ee 18 bf
       -0.6802695 0.5164813 -0.7774768 -0.5973869
0003a0 22 4b 67 bf 95 ae d1 3e cb d1 29 bf 9f fb 0a 3f
       -0.9034902 0.40953508 -0.66335744 0.54290193
0003b0 60 07 e1 3d 86 e6 b9 bd 04 9d e6 3e a3 35 cd be
       0.10987735 -0.09077172 0.45041668 -0.40079984
0003c0 5f 93 4a 3f c7 10 53 bf 62 87 0e 3f 40 8e 20 bf
       0.7913112 -0.82447475 0.5567533 -0.62717056
0003d0 8d cf cc 3e 85 f5 48 3f 75 09 23 bf 9a f6 ae 3e
       0.400021 0.78499633 -0.63686305 0.34172517
0003e0 91 c0 1b bf ca 09 3a 3f 14 1e a1 3e ae 6b d9 bd
       -0.6084071 0.72671187 0.3146826 -0.106162414
0003f0 7a 1d bc 3e ab c0 bf be 12 1c 7e 3e 63 6e 4f 3e
       0.3674124 -0.37451681 0.24815395 0.20256953

fc.bias f4 [7]
000000 77 0f 5e bf d1 d0 4e bf 24 e5 5f bf 82 11 16 bf
       -0.8674235 -0.8078738 -0.87459016 -0.58620465
000010 3a dd 6c bf 7c ad 4e 3f f0 51 24 bf
       -0.92525065 0.80733466 -0.64187527
