assets/pca_classifier.pth (torch, 3613 bytes, 2 tensors)

fc.weight f4 [8, 50]
000000 3b 0d d8 3d 43 9c 3a 3e 65 fe a0 bd 8f 50 be be
       0.105493985 0.18223672 -0.07861022 -0.37170836
000010 3f 36 f2 3e f9 51 0e 3f b9 29 c5 3d a2 3a c2 3e
       0.4730701 0.5559383 0.096270986 0.37935358
000020 11 da 54 be ff 4c e3 be 09 09 c7 3e f6 77 4d be
       -0.2078631 -0.4439468 0.3887408 -0.20065293
000030 a1 9a bc be 36 c4 0f 3f 30 27 ee be 0d 00 75 3e
       -0.36836722 0.5615877 -0.46514273 0.239258
000040 0c 11 ea be 00 35 f4 3e 49 dd 8d 3e b8 0e fb be
       -0.4571613 0.47696686 0.2770789 -0.49034667
000050 ea 57 04 bf 45 bd d0 3e 03 0c 96 3e c7 d6 14 bf
       -0.51696646 0.407694 0.2930604 -0.58140224
000060 27 f2 76 be 4e 15 5b 3f f0 23 58 bf 43 cd 09 bf
       -0.24115811 0.85579383 -0.84429836 -0.5382883
000070 c6 06 1b 3f ba cd ef 3e 5f 14 48 3f bc 43 eb be
       0.6055721 0.46836644 0.78156084 -0.45950115
000080 ee bd 20 bf 3b d3 30 bf 15 c4 52 bf db d0 3f bf
       -0.6278981 -0.6907231 -0.8233045 -0.74928063
000090 8c 2f 0a 3f 07 ea 3b bf 4a 8b 41 3f de 9d 18 3f
       0.539788 -0.7340397 0.75603163 0.59615886
0000a0 33 41 2f 3f 64 cd b9 be db 88 e3 3e ca 3b ec 3e
       0.6845886 -0.36289513 0.4444035 0.46139365
0000b0 3b 4a 3d bf 32 dd 19 3f 7a 67 3c 3f ec 43 28 bf
       -0.7394139 0.6010314 0.7359539 -0.6572864
0000c0 9a c5 2c 3f ca 27 2d 3f 58 cd d5 3e 55 f7 99 be
       0.67489016 0.6763884 0.41758227 -0.30071512
0000d0 38 e5 10 bf 5f 3c 49 be bc 76 ac 3d 53 2d 96 3d
       -0.5659976 -0.19651936 0.08421084 0.07332864
0000e0 b5 5a 7b 3e 9d 0e fb 3e bf 72 6a 3e 03 92 88 be
       0.2454632 0.49034587 0.22895335 -0.26673898
0000f0 b7 6c da be bb 8f 26 3f bb 58 d4 be 7d 65 a9 bc
       -0.42661068 0.65063065 -0.41473946 -0.020678276
000100 c0 35 01 3f 97 0e ed 3e d6 83 04 3f 35 75 0c 3f
       0.5047264 0.46300194 0.51763666 0.54866344
000110 a5 44 7e be dd 2d 2a 3f 62 ba 36 3f 0b 1b da be
       -0.24830873 0.6647623 0.7137815 -0.42598757
000120 b2 0c 48 3f 9f fb 1d 3f 30 7a 2a 3f ed ae db be
       0.7814437 0.6171207 0.66592693 -0.42906895
000130 af e7 b0 3e ca ad 06 3f 25 19 98 3e b6 ac 60 3e
       0.3455176 0.5260893 0.29706684 0.21940884
000140 86 4f f4 be e5 9c 3f 3f ac 71 14 bf 23 fd 42 3d
       -0.47716922 0.7484878 -0.5798595 0.04760469
000150 f8 62 c3 bd 0f e1 2f 3f 7b 2d bc 3e c7 d3 d1 3e
       -0.09540361 0.6870279 0.3675345 0.40981886
000160 32 1b 80 3f cf 70 8f 3f 0b c3 ec be 52 d6 45 bf
       1.0008299 1.1206301 -0.46242556 -0.7728015
000170 26 db 74 3f 23 87 15 3f 34 a4 81 3f 71 5d 29 bf
       0.95646894 0.5840933 1.0128236 -0.66158205
000180 84 eb 42 bf 07 00 36 bf 9b d5 bf be 6a eb ab 3e
       -0.7614062 -0.7109379 -0.37467656 0.33578044
000190 b0 1a bb be 8f 58 d5 be 2e 01 56 be c0 fa dd 3e
       -0.36543798 -0.41669127 -0.20898888 0.4335537
0001a0 15 8f 99 3e 1c e8 92 be 35 9b c9 be e6 93 c4 be
       0.29991975 -0.2869271 -0.39376226 -0.38394088
0001b0 66 28 a7 be 04 8c b1 be 43 b2 95 be 4c b3 bd 3d
       -0.3264801 -0.34677136 -0.29237565 0.09262714
0001c0 da 23 15 bf 15 48 0b bf 71 e0 2c 3f 34 cf 80 3e
       -0.5825783 -0.54406863 0.6752997 0.25158083
0001d0 db b1 20 bf c9 5c ca 3d b2 2e 2b bf da 15 c7 be
       -0.62771386 0.098809786 -0.66868126 -0.3888386
0001e0 a7 fc 0a bf ae 31 15 3e 31 93 4b 3f 92 c8 a3 be
       -0.54291767 0.14569733 0.7952147 -0.3198896
0001f0 c7 2f 15 bf 5c 7f 10 bf de 0b 6a be 11 16 06 3f
       -0.5827603 -0.56444335 -0.2285609 0.5237742
000200 74 84 21 be c7 47 28 bf 94 03 27 bf 46 a5 18 bf
       -0.15773183 -0.65734524 -0.65239835 -0.5962719
000210 05 1c 1d 3f 5d 79 f3 3e 20 0b 2d bf 8b 54 4b 3f
       0.6137088 0.4755353 -0.675951 0.7942588
000220 b8 4d 0b bf d9 f5 13 3f 6a 46 17 bf c5 af 4a 3f
       -0.54415464 0.5779701 -0.5909182 0.79174453
000230 d7 bc 78 3f 6d 05 d1 be 68 01 2b bf 03 3e 3f bf
       0.97163147 -0.40824452 -0.6679902 -0.74704
000240 56 e5 0a bf d9 47 14 3f e0 e8 4f bf 9f 72 10 3f
       -0.5425619 0.5792213 -0.81214714 0.564249
000250 57 8c 15 3f 9c 66 07 3f 19 be fe 3d 0d 16 ba 3e
       0.58417267 0.52890944 0.12438602 0.36344948
000260 07 29 97 be 22 aa 0d bf b8 d3 fa be 70 4b ba be
       -0.2952349 -0.5533773 -0.48989654 -0.3638568
000270 2c 96 e3 3e 99 35 44 be 78 06 2c 3e a5 7d bf 3e
       0.4445051 -0.19161071 0.16799343 0.37400547
000280 ab 8e 46 be 53 db 97 3e 33 fe ab 3e 33 fb 0e bf
       -0.19390361 0.2965952 0.33592376 -0.5585205
000290 03 47 2b bf c1 36 75 bd f4 eb 12 3f 54 68 fb bc
       -0.6690523 -0.05986667 0.57391286 -0.030689396
0002a0 62 4d da be 00 bb df be 01 12 4a 3f 14 f8 02 bf
       -0.42637163 -0.43697357 0.7893372 -0.5115979
0002b0 1e 5d 5a bf 6d 5c 06 bf 80 11 b9 3e 33 fc 3e bf
       -0.85298336 -0.5248478 0.36146164 -0.74603575
0002c0 03 7c 2e bf 23 e4 bd be d1 5b 5b be cf 1b b4 3e
       -0.68157977 -0.37088117 -0.21421744 0.35177466
0002d0 99 49 c9 bd 8f 76 1e be 6c e2 81 bf e3 f1 43 3f
       -0.09828491 -0.15474914 -1.0147223 0.76540965
0002e0 27 ca 20 3f 9f b7 13 3f 97 26 c0 3d c3 05 21 3f
       0.6280846 0.5770206 0.093823604 0.62899417
0002f0 d7 a5 46 bf ac cf 33 bf 61 2d 3a bf 12 37 94 3f
       -0.775968 -0.7023876 -0.7272549 1.1579306
000300 7a b1 a8 3e 35 95 57 bf 78 1f c1 3e 52 75 12 bf
       0.32947904 -0.84212047 0.3771932 -0.57210267
000310 f8 77 55 3f c6 09 5e 3f 51 a3 46 bf a1 2c 1e bf
       0.8338618 0.86733663 -0.7759295 -0.6178685
000320 3f dc 10 bd c7 ee 23 bc 1c b9 13 bf 15 5e cc 3e
       -0.035366293 -0.010005659 -0.5770433 0.3991553
000330 de b7 e2 3e ed e5 03 3f 40 4c f9 3e d6 31 05 bf
       0.44280905 0.51522714 0.48690987 -0.5202917
000340 76 d2 e6 3e 73 c0 3f 3e 82 ae 19 bf f7 3d fb 3d
       0.45082444 0.18725757 -0.600319 0.12267678
000350 4b 89 45 3e 7d dd 5b 3e 55 2c bc bd 4e 52 b2 bd
       0.19290654 0.2147121 -0.09188143 -0.087071046
000360 85 22 0e 3f c6 18 48 3f b7 05 34 3f a3 6e db be
       0.5552142 0.781628 0.7032122 -0.42857847
000370 48 b2 fc 3e 51 6b 52 3f 28 6c 0d 3f 8e dc dd 3e
       0.49354768 0.82195 0.5524316 0.43332332
000380 a6 26 00 3f 00 7d ec be cd 80 fb 3e 97 e4 2b bf
       0.5005897 -0.46189117 0.49121705 -0.67145675
000390 0e 72 e7 3e bd 20 b8 3c 99 81 d5 3e dc 2e 57 3f
       0.45204204 0.022476548 0.41700438 0.84055877
0003a0 b1 c4 2d bf 22 19 19 bf 31 19 14 bf b1 55 0b bf
       -0.6787825 -0.59803975 -0.5785094 -0.5442763
0003b0 93 ff 13 3f 53 71 11 3f d3 5b 1d bd f1 98 87 be
       0.5781185 0.56813544 -0.03841765 -0.26483873
0003c0 ee 31 d6 be 2b 6a d3 3e af 08 1b bf 31 c8 da 3e
       -0.41834968 0.41291937 -0.60560125 0.4273086
0003d0 37 6d 9f be 8d 8e d9 3e 42 b8 3a 3f 12 d3 5b 3f
       -0.31138012 0.4249157 0.72937405 0.8586894
0003e0 7f 29 33 bf 0b 88 41 bf 48 45 4a bb 68 a4 3c 3e
       -0.69985193 -0.7559821 -0.0030864049 0.18422091
0003f0 a6 d8 09 bf 00 8d af 3e 92 ba a1 be f7 38 03 3f
       -0.53846204 0.34287262 -0.31587654 0.51258796

fc.bias f4 [8]
000000 5c 28 eb be 28 05 a3 3e db 08 ec be ba 46 30 3f
       -0.4592923 0.3183987 -0.46100506 0.6885792
000010 9f 3f 10 bf 16 db f0 be 78 ae cf 3e f8 86 da 3d
       -0.5634708 -0.4704215 0.40562797 0.106702745
